stock/saved_model/model_1.pth (torch_old, 125923 bytes, 10 tensors)

lstm.weight_ih_l0 f4 [200, 1]
0	0x3f0bd448	0.5462079
1	0x3f464a2b	0.7745692
2	0x3f0520a9	0.5200296
3	0x3ecdea84	0.40217984
4	0x3eb10c61	0.34579757
5	0x3e96f89d	0.29486552
6	0x3ec4f2a6	0.38466376
7	0x3f46db6b	0.77678555
8	0x3ecb09b3	0.39655837
9	0x3ed6750b	0.41886172
10	0x3f131f02	0.5746919
11	0x3e52c64f	0.20583461
12	0x3eacddb6	0.33762902
13	0x3f1e19a8	0.617579
14	0x3ec9003a	0.39257985
15	0x3f072b00	0.5279999
16	0x3e9f722d	0.31141797
17	0x3e9ecb44	0.31014454
18	0x3edb11a2	0.4278689
19	0x3f063800	0.524292
20	0x3f22190c	0.6331947
21	0x3f0a9562	0.5413419
22	0x3e26e59e	0.1629853
23	0x3e0eee44	0.13958079
24	0x3e5c0337	0.21485601
25	0x3f126ced	0.5719746
26	0x3f3be140	0.7339058
27	0x3e9d09ab	0.3067144
28	0x3e95896d	0.2920641
29	0x3e74f4b7	0.23921476
30	0x3e80cb35	0.25155035
31	0x3edaaa77	0.4270818
32	0x3efbcd91	0.49180272
33	0x3eeffb16	0.4687125
34	0x3ec78178	0.38965964
35	0x3e76f605	0.24117287
36	0x3e86b01e	0.26306242
37	0x3f11dd00	0.56977844
38	0x3d150b81	0.036387924
39	0x3e05ba94	0.13059455
40	0x3ebde39d	0.37087718
41	0x3eb62ca4	0.35580933
42	0x3d2986cd	0.04138832
43	0x3ed35e09	0.4128268
44	0x3f16afc8	0.5886197
45	0x3e05f800	0.13082886
46	0x3e8689cc	0.26277006
47	0x3ee60472	0.44925267
48	0x3ed0a997	0.40754387
49	0x3f239912	0.6390544
50	0x3e96ce7f	0.2945442
51	0x3f1f199a	0.6214844
52	0x3e92222a	0.2854169
53	0x3f0ea8da	0.557264
54	0x3eaead8b	0.34116778
55	0x3ed7f9f5	0.4218289
56	0x3eba0934	0.36335146
57	0x3f12cc05	0.5734256
58	0x3ed4f168	0.41590428
59	0x3f036abb	0.5133473
60	0x3e8a1f49	0.26976994
61	0x3e76f7a6	0.24117908
62	0x3ebcb0e2	0.368537
63	0x3f036f9f	0.51342195
64	0x3f0551aa	0.52077734
65	0x3ec41d07	0.38303396
66	0x3dc905c5	0.098155536
67	0x3e7b9d60	0.24571753
68	0x3ec4c13e	0.38428682
69	0x3ef75a3c	0.4831103
70	0x3ec9909b	0.39368138
71	0x3ee73b09	0.45162228
72	0x3deef414	0.11667648
73	0x3e5ce4ed	0.21571703
74	0x3e86e448	0.2634604
75	0x3e5db268	0.21650088
76	0x3f0ccbf0	0.54998684
77	0x3da46c89	0.08028514
78	0x3e838f93	0.25695476
79	0x3e2a7b7d	0.1664867
80	0x3d60a97e	0.05484914
81	0x3f0383ce	0.51372993
82	0x3eeace8e	0.45860714
83	0x3eb7ee61	0.35924056
84	0x3ed3705d	0.41296664
85	0x3dd2784a	0.102768496
86	0x3e0c7874	0.13717824
87	0x3ee69cdd	0.45041552
88	0x3da380aa	0.07983525
89	0x3e292b06	0.16520318
90	0x3e749e86	0.23888597
91	0x3e84f0be	0.25964922
92	0x3dbb6a73	0.09151163
93	0x3ebc6f70	0.3680377
94	0x3ecfb102	0.40564734
95	0x3e812c75	0.2522923
96	0x3e20622e	0.15662453
97	0x3eb1977e	0.34685892
98	0x3edeae45	0.43492332
99	0x3ed280bc	0.41113842
100	0x3db1263f	0.08649873
101	0x3e2541fd	0.16138454
102	0xbe6ea590	-0.23305345
103	0x3d69df28	0.057097584
104	0xbe189cf8	-0.14903629
105	0xbe34b711	-0.1764796
106	0xbd578271	-0.052614633
107	0x3c86db6d	0.016462052
108	0x3bcf4525	0.0063253813
109	0x3dd8e31e	0.10590194
110	0x3e5b6dc9	0.21428598
111	0xbe0f8d85	-0.14018829
112	0xbe004c92	-0.1252921
113	0x3df4fe50	0.11962569
114	0xbda2ed2d	-0.07955394
115	0xbe402af6	-0.18766388
116	0xbc676656	-0.01412352
117	0xbdf1a42c	-0.117988914
118	0xbe278187	-0.16358005
119	0x3e2f6595	0.17128594
120	0x3e06d1ed	0.13166018
121	0xbe9b8baa	-0.30379993
122	0x3df355c9	0.118815966
123	0xbcfed1b8	-0.031105861
124	0xbdd32efd	-0.10311697
125	0xbce3c588	-0.027804151
126	0xbca6660c	-0.020312332
127	0xbdb5f01e	-0.08883689
128	0x3c4b475a	0.012407148
129	0x3e112889	0.14175619
130	0xbd92bc2a	-0.07164796
131	0x3ca71219	0.020394372
132	0xbdb2b46e	-0.087258205
133	0x3b497a56	0.0030743084
134	0xbd0b342b	-0.033985298
135	0x3d5b7684	0.053579822
136	0x3dd7d030	0.105377555
137	0xbd1dd715	-0.038535196
138	0xbe1e15fc	-0.15438074
139	0x3d2881b8	0.041139334
140	0xbddbfc98	-0.10741538
141	0x3d9be24b	0.07611521
142	0xbd3405f4	-0.04395099
143	0xbcf03b93	-0.029325282
144	0x3dbb1347	0.09134536
145	0xbd8772b5	-0.066136755
146	0x3e4d3e44	0.20043284
147	0x3e00c574	0.12575322
148	0xbe0f3636	-0.13985524
149	0x3e1042bf	0.14087962
150	0x3eab269e	0.334279
151	0x3f2e8d59	0.6818443
152	0x3e95db42	0.29268843
153	0x3ef96fc7	0.48718092
154	0x3e9f0a39	0.31062487
155	0x3f0231a5	0.50857
156	0x3ec45202	0.38343817
157	0x3f360085	0.7109454
158	0x3eecc4a4	0.46243775
159	0x3ede39fd	0.43403617
160	0x3ec42cc1	0.38315395
161	0x3eaca8ad	0.3372244
162	0x3e77f433	0.24214248
163	0x3ec04c5c	0.37558258
164	0x3ee2175c	0.44158447
165	0x3f0d5663	0.5520994
166	0x3e15ff52	0.14648178
167	0x3eb7b153	0.35877475
168	0x3e98e362	0.2986098
169	0x3eda1eda	0.42601663
170	0x3f0759e1	0.5287152
171	0x3ecfa51c	0.40555656
172	0x3e708b0d	0.23490544
173	0x3e697504	0.22798544
174	0x3efecd84	0.4976617
175	0x3efb1b48	0.4904425
176	0x3f3ff9e2	0.74990666
177	0x3df69d4e	0.12041722
178	0x3ec8ecb8	0.39243102
179	0x3d8e38d3	0.06944432
180	0x3e3376c0	0.17525768
181	0x3f0a7a56	0.5409292
182	0x3ecc7965	0.39936367
183	0x3f0f9e88	0.56101274
184	0x3f047d6a	0.51753867
185	0x3e57213a	0.21008769
186	0x3e32eb77	0.17472635
187	0x3f082652	0.5318347
188	0x3e629756	0.22128043
189	0x3e5251b2	0.20538977
190	0x3edf45fc	0.4360808
191	0x3e6e9988	0.23300755
192	0x3e514837	0.20437704
193	0x3ed532f8	0.4164045
194	0x3f313a6e	0.6922978
195	0x3e2c44d9	0.16823138
196	0x3e8d8d4d	0.27646866
197	0x3edd7a60	0.43257427
198	0x3ecb07bc	0.39654338
199	0x3eb2cd7e	0.34922403

lstm.weight_hh_l0 f4 [200, 50]
0	0x3e4be248	0.19910538
1	0xbdfd586b	-0.1237038
2	0x3e113317	0.14179645
3	0xbec9cdbf	-0.39414784
4	0xbe309128	-0.17242873
5	0xbc77ad17	-0.015116951
6	0x3e572047	0.21008407
7	0x3dc49842	0.095993534
8	0x3e05f14a	0.13080326
9	0xbee24e61	-0.44200423
10	0xbec681fa	-0.3877104
11	0xbe36c412	-0.17848232
12	0x3db09580	0.08622265
13	0x3eb929a0	0.3616457
14	0xbd26ad5c	-0.040692672
15	0xbdf8a1a7	-0.12140208
16	0xbe91b9fe	-0.28462213
17	0x3e84982c	0.25897348
18	0xbddcce9e	-0.107815966
19	0xbcebe6d4	-0.02879659
20	0x3c49fb2c	0.01232795
21	0xbd580049	-0.052734647
22	0xbe4c821e	-0.19971511
23	0x3d912018	0.070861995
24	0xbda1d0b1	-0.07901133
25	0x3e9546c2	0.29155546
26	0xbe446584	-0.1917935
27	0x3e1928cb	0.14956968
28	0xbe8fceb1	-0.2808738
29	0xbed12b25	-0.4085323
30	0x3e89e145	0.2692968
31	0x3e1b24db	0.15150778
32	0x3da2342d	0.07920108
33	0xbd5ec7e4	-0.05438985
34	0xbe0bfa00	-0.13669586
35	0xbd1761f7	-0.03695866
36	0xbe6985d1	-0.22804953
37	0x3ea8b48a	0.3295024
38	0x3c7fdacb	0.015616129
39	0x3d9cc95f	0.07655596
40	0x3e5caa47	0.2154933
41	0xbec94012	-0.39306694
42	0xbe7a6ea0	-0.24456263
43	0xbe09aa6a	-0.13443914
44	0x3c90d5b8	0.017680034
45	0x3def9efb	0.11700245
46	0xbed2d102	-0.41175085
47	0xbf0d8768	-0.5528474
48	0x3e06f88e	0.13180754
49	0xbe9b8473	-0.30374488
50	0xbd764801	-0.060127262
51	0x3e05d8d7	0.13070999
52	0xbe1690fd	-0.14703746
53	0xbe0e395b	-0.13889067
54	0xbe469e38	-0.19396293
55	0xbdad14b9	-0.08451218
56	0x3db5483f	0.088516705
57	0xbc1bbdf0	-0.009505734
58	0x3e9cad86	0.30601138
59	0xbe1cdc44	-0.153184
60	0x3d825969	0.0636471
61	0xbeab96b9	-0.3351343
62	0x3e1952e4	0.14973027
63	0xbc8f1814	-0.017467536
64	0x3d4882fd	0.048953045
65	0xbda63244	-0.08115056
66	0xbe0a322c	-0.13495702
67	0x3d9afcd7	0.075677566
68	0xbc0207fe	-0.007936476
69	0x3cdefd61	0.02722043
70	0xbd3e1261	-0.046404246
71	0xbeb97b56	-0.3622691
72	0xbe5d1072	-0.21588305
73	0x3db902d1	0.0903374
74	0x3d93b1a3	0.07211616
75	0x3e3e1fae	0.18566772
76	0x3da60ad2	0.081075326
77	0xbd00da3b	-0.03145812
78	0xbe12a403	-0.14320378
79	0xbd7044fe	-0.058659546
80	0xbc5d02c9	-0.013489434
81	0x3ec6d5bf	0.3883495
82	0xbe60bc03	-0.21946721
83	0xbe8aa186	-0.27076358
84	0x3c89445d	0.016756231
85	0x3a4d28df	0.00078262197
86	0xbe17791d	-0.14792295
87	0x3e1db09f	0.15399407
88	0x3dd2e8b0	0.10298288
89	0x3e2eb1c4	0.1706
90	0x3d1f20c0	0.038849592
91	0x3c2da493	0.01059832
92	0x3de391f6	0.11111824
93	0x3d0fcd5b	0.03510795
94	0x3d912284	0.070866615
95	0x3e2f9b86	0.17149171
96	0x3deb343f	0.114845745
97	0x3d4761f5	0.048677403
98	0x3ddf06b2	0.10889949
99	0xbd90f090	-0.07077134
100	0xbe85970d	-0.26091805
101	0xbc92d41b	-0.017923405
102	0xbe6d2f36	-0.23162541
103	0xbc41f705	-0.011838679
104	0xbd942d5f	-0.07235216
105	0xbe14e339	-0.14539804
106	0xbea4bd01	-0.3217545
107	0x3a360aa7	0.00069443363
108	0xbdd7917f	-0.10525798
109	0x3e57cc02	0.21073917
110	0x3c8148b5	0.01578174
111	0xbdf235e5	-0.11826686
112	0x3e089933	0.13339691
113	0x3e96e49a	0.29471284
114	0x3c156be4	0.009119961
115	0xbefaaeab	-0.48961386
116	0xbe5e1c8f	-0.21690582
117	0xbe94b3d7	-0.29043457
118	0xbd2b2e27	-0.04179206
119	0x3e122cb4	0.14274865
120	0xbdb011c4	-0.085971385
121	0xbeba657b	-0.36405548
122	0x3d696dd9	0.056989525
123	0x3ded97f8	0.11601251
124	0xbd2811df	-0.04103267
125	0x3d1f3fad	0.038879085
126	0x3ba627b1	0.0050706496
127	0x3bc3f799	0.0059804437
128	0xbe746cb7	-0.23869596
129	0x3e1d36a8	0.15352881
130	0x3d488ac4	0.048960462
131	0xbe2b5780	-0.16732597
132	0xbeb82192	-0.35963112
133	0x3ad3bf3b	0.0016155014
134	0xbd2ccec2	-0.042189367
135	0x3d5d183f	0.0539782
136	0x3ae7f7a9	0.001769771
137	0xbd8902f1	-0.06690014
138	0x3df0ad4b	0.11751803
139	0x3e505175	0.20343573
140	0xbd8515ab	-0.064982735
141	0xbe06f336	-0.13178715
142	0xbd2f2aa3	-0.04276527
143	0xbe55559d	-0.2083344
144	0x3e026ce8	0.12736857
145	0x3e6d37ee	0.23165867
146	0xbc866632	-0.016406152
147	0x3e221eed	0.1583211
148	0xbe97887a	-0.2959631
149	0x3e44fe8b	0.19237725
150	0x3e99b1ba	0.30018407
151	0xbe8ba8eb	-0.27277312
152	0x3c9249ff	0.01785755
153	0xbe5ae732	-0.21377257
154	0xbd97628c	-0.07391843
155	0xbe11cd99	-0.14238586
156	0x3dc732b8	0.09726471
157	0x3e5f1543	0.21785454
158	0x3e3d9c09	0.18516554
159	0xbea6a356	-0.3254649
160	0xbe25d18b	-0.16193216
161	0xbd38c27c	-0.04510735
162	0x3c2a4c83	0.010394218
163	0x3e876b6e	0.2644915
164	0x3e0e4765	0.13894422
165	0x3d44e175	0.048066575
166	0xbe00c2b3	-0.12574272
167	0xbd59cc69	-0.053173456
168	0xbdce9e52	-0.10088791
169	0x3e024e73	0.12725239
170	0x3e8d9882	0.27655417
171	0x3d6eb3ce	0.058276944
172	0xbcad9170	-0.021187514
173	0xbd2d5b40	-0.04232335
174	0xbc056f98	-0.008144282
175	0x3d787b25	0.060664315
176	0xbe62c6fe	-0.22146222
177	0xba7cfa6c	-0.0009650353
178	0xbc93d66f	-0.018046586
179	0xbe67e869	-0.22647251
180	0x3e9df3cd	0.30850068
181	0x3dc80878	0.0976724
182	0x3dbf7d06	0.09350018
183	0xbd025ddf	-0.031827804
184	0x3d2d0876	0.042244397
185	0xbdb0f8e0	-0.08641219
186	0xbe91a821	-0.28448585
187	0x3d47db36	0.04879304
188	0xbdcd50ec	-0.100252
189	0x3e505418	0.20344579
190	0x3e66d205	0.22541054
191	0xbe4eec17	-0.20207249
192	0xbd120744	-0.03565146
193	0xba474b34	-0.00076024537
194	0xbd8c6506	-0.06855206
195	0xbd2c2cba	-0.042034842
196	0xbdae3f5e	-0.0850818
197	0xbe89daff	-0.26924893
198	0x3e2a5361	0.16633369
199	0xbe55aac1	-0.20865919
200	0x3e36ed5e	0.17863986
201	0x3d61cf7c	0.055129513
202	0x3e3686b4	0.17824823
203	0xbe4f7bc8	-0.20262063
204	0x3e1b5233	0.15168075
205	0xbd2eeaff	-0.04270458
206	0xbdd0650a	-0.10175522
207	0xbbbb9c38	-0.00572541
208	0x3d835680	0.06412983
209	0xbe4c62a8	-0.1995951
210	0xbe6bfa26	-0.23044643
211	0x3d0df812	0.034660406
212	0xbd06aaae	-0.032877617
213	0x3e55a738	0.2086457
214	0xbcb19d71	-0.02168152
215	0x3c97cc4c	0.018530034
216	0xbe817544	-0.2528478
217	0x3e29ca2c	0.16581029
218	0x3d565022	0.052322514
219	0x3ddf5803	0.10905459
220	0x3cba7c1e	0.022764262
221	0x3e6d1e11	0.23156
222	0xbe6c9170	-0.23102355
223	0x3e41e594	0.18935233
224	0xbdff8d63	-0.12478139
225	0x3d6be2d0	0.057589352
226	0xbe004aac	-0.12528485
227	0x3d600a8c	0.05469756
228	0xbe48ea6d	-0.19620676
229	0xbeadea5b	-0.33967862
230	0x3eb3529c	0.35023963
231	0x3d8c03c4	0.06836656
232	0xbdcd8e83	-0.100369476
233	0xbdd04071	-0.10168541
234	0xbe56a959	-0.20963039
235	0x3e6a47a2	0.22878888
236	0xbec73cfd	-0.38913718
237	0x3bd0e05d	0.0063744024
238	0x3e2d37ee	0.16915867
239	0x3e05fe86	0.13085374
240	0x3d94f26b	0.072728
241	0xbe9c8048	-0.3056662
242	0xbdfd1f17	-0.123594455
243	0xbe1a1a28	-0.1504904
244	0x3def57bb	0.11686655
245	0x3c865758	0.01639907
246	0xbdb0c360	-0.08631015
247	0xbe2cfd34	-0.16893464
248	0xbe2f803c	-0.17138761
249	0x3de2d9ed	0.11076722
250	0xbe520872	-0.20511034
251	0xbccccc6f	-0.024999825
252	0xbdfbf434	-0.123024374
253	0xbd58189d	-0.052757848
254	0x3d80bcbf	0.062860005
255	0xbe92007f	-0.28516003

lstm.bias_ih_l0 f4 [200]
0	0xbedc3e5d	-0.4301633
1	0xbebd061f	-0.36918733
2	0xbe5e91d1	-0.21735312
3	0xbe83d898	-0.25751185
4	0xbe7e54f8	-0.248371
5	0xbe7ec9d8	-0.24881685
6	0xbe882ec8	-0.2659819
7	0xbf0fd419	-0.5618301
8	0xbec4098b	-0.3828853
9	0xbec49e79	-0.38402155
10	0xbe971730	-0.29509878
11	0xbeb00151	-0.34376004
12	0xbe284baf	-0.16435121
13	0xbf1f56f3	-0.6224205
14	0xbedc58e4	-0.43036568
15	0xbe7c701d	-0.24652143
16	0xbe1427f2	-0.14468363
17	0xbe184f08	-0.14873898
18	0xbea95b22	-0.3307734
19	0xbe72385b	-0.2365431
20	0xbede5106	-0.4342119
21	0xbede5262	-0.43422228
22	0xbe7b88a9	-0.2456385
23	0xbd1c59c7	-0.038171556
24	0xbebf42c3	-0.37355623
25	0xbeb33ecb	-0.35008845
26	0xbf385d39	-0.72017246
27	0xbde58770	-0.11207473
28	0xbeb6cca1	-0.35702994
29	0xbd107535	-0.035268027
30	0xbdff178e	-0.124556646
31	0xbf0e6f46	-0.5563854
32	0xbeab9fc3	-0.33520326
33	0xbef3280d	-0.47491494
34	0xbeb7265f	-0.35771462
35	0xbe163a43	-0.14670663
36	0xbdfbd9c9	-0.122973986
37	0xbeb9f9cf	-0.363234
38	0xbd34f04e	-0.044174485
39	0xbe6a6b4b	-0.22892492
40	0xbe1c7ebb	-0.15282719
41	0xbe6a4e90	-0.22881532
42	0xbeb15e19	-0.34642103
43	0xbec562bd	-0.38551894
44	0xbedfc141	-0.4370213
45	0xbea694dd	-0.3253545
46	0xbe414b76	-0.18876442
47	0xbe9e312a	-0.30896884
48	0xbe8d50b6	-0.2760064
49	0xbeb52eff	-0.35387418
50	0xbe94074d	-0.2891182
51	0xbe8e7095	-0.27820268
52	0xbe3bde3f	-0.18346499
53	0xbee8663a	-0.45390493
54	0xbed7f74d	-0.42180863
55	0xbc9ef590	-0.019404203
56	0xbe06c1e9	-0.13159908
57	0xbf0c3cea	-0.5478045
58	0xbe97349e	-0.2953233
59	0xbed7f445	-0.4217855
60	0xbea143ee	-0.3149714
61	0xbe5f6345	-0.21815212
62	0xbe615133	-0.22003631
63	0xbea85c7e	-0.32883066
64	0xbe9c5f73	-0.30541572
65	0xbe749f70	-0.23888946
66	0xbe86bfba	-0.2631815
67	0xbe5cd24b	-0.21564595
68	0xbe795609	-0.24349226
69	0xbeb437b5	-0.3519875
70	0xbee54a53	-0.44783267
71	0xbe3b55ed	-0.18294497
72	0xbe0d4ece	-0.13799593
73	0xbe181255	-0.14850743
74	0xbe8462c2	-0.25856596
75	0xbeabfcef	-0.3359141
76	0xbecf1976	-0.40449113
77	0xbd439507	-0.047749545
78	0xbeb377fb	-0.35052475
79	0xbe0f30e2	-0.13983491
80	0xbe3898e1	-0.18027069
81	0xbebc7a4a	-0.3681205
82	0xbe1224f0	-0.14271903
83	0xbeb815c6	-0.35954112
84	0xbeb90b75	-0.36141554
85	0xbd994313	-0.074834965
86	0xbe4756d3	-0.19466715
87	0xbeaf2ace	-0.34212345
88	0xbdfd6442	-0.12372638
89	0xbdb76480	-0.08954716
90	0xbec4af0e	-0.38414806
91	0xbe137e5d	-0.14403673
92	0xbe9c6ef0	-0.3055339
93	0xbecdd4b4	-0.40201342
94	0xbf091292	-0.5354396
95	0xbe1f5456	-0.15559515
96	0x3e2e8505	0.1704293
97	0x3d23dec0	0.040007353
98	0xbe66f19a	-0.22553101
99	0xbea4a4f8	-0.3215711
100	0x3dc94e36	0.09829371
101	0x3cc34fa2	0.023841683
102	0xbdb221c0	-0.086978436
103	0x3e45b876	0.19308648
104	0x3d5b520c	0.053545043
105	0xbe209dea	-0.1568524
106	0xbe3747c3	-0.17898469
107	0xbc119055	-0.008884509
108	0x3d371377	0.044696297
109	0x3df99315	0.12186257
110	0xbc3c3326	-0.011486804
111	0xbd98a525	-0.07453374
112	0xbd36a012	-0.04458625
113	0xbc09d3a8	-0.008412279
114	0x3c8fb19d	0.017540747
115	0x3bb26e79	0.0054452983
116	0x3c243dc2	0.01002449
117	0xbd1486fd	-0.036261547
118	0x3e1b6dc4	0.15178591
119	0xbc3eff27	-0.011657513
120	0xbce59335	-0.028024295
121	0x3d64e401	0.055881504
122	0xbd54c510	-0.051945746
123	0x3d67b609	0.056570087
124	0x3d83539c	0.064124316
125	0xbd1e8c8f	-0.038708266
126	0xbc99a688	-0.018756166
127	0x3d469601	0.0484829
128	0x3dae974c	0.08524951
129	0xbd8c1312	-0.06839575
130	0x3c47a08b	0.0121842725
131	0xbd742516	-0.05960568
132	0xbd429d11	-0.04751307
133	0x3d68037a	0.05664394
134	0x3cb3007f	0.021850822
135	0x3ccf8985	0.02533413
136	0xbdd6c349	-0.104864664
137	0x3d1d3eea	0.038390078
138	0x3cee4383	0.029084926
139	0x3d81ce53	0.06338181
140	0x3cd61d67	0.026137067
141	0x3d91b2ca	0.071141794
142	0xbceaebb2	-0.028676841
143	0x3d8e1293	0.069371365
144	0xbd10657f	-0.035253044
145	0x3c97b72c	0.01851996
146	0x3d3abbca	0.045589246
147	0x3d5942ee	0.053042345
148	0xbe3d0a2d	-0.18460913
149	0x3da3ea77	0.08003705
150	0xbf06b80e	-0.52624595
151	0xbed545bc	-0.41654766
152	0xbea2fd3c	-0.31833827
153	0xbeb78578	-0.35844016
154	0xbedd8262	-0.43263537
155	0xbe9e500b	-0.30920443
156	0xbe4025c9	-0.18764414
157	0xbf2d7060	-0.67749596
158	0xbf1cf530	-0.61311626
159	0xbea79b78	-0.327358
160	0xbf057a03	-0.521393
161	0xbec1f173	-0.37879524
162	0xbe72b33e	-0.23701188
163	0xbefe4f3d	-0.4966983
164	0xbeb098df	-0.3449163
165	0xbea06890	-0.31329775
166	0xbe753ba3	-0.23948531
167	0xbea3e58d	-0.3201107
168	0xbed30d65	-0.41221157
169	0xbe4fd1f7	-0.20294939
170	0xbed0dc1b	-0.40792927
171	0xbeab1b9b	-0.334195
172	0xbdfef89a	-0.12449761
173	0xbe52a980	-0.20572472
174	0xbe1e6784	-0.15469176
175	0xbebb31da	-0.3656147
176	0xbf12d76e	-0.5735997
177	0xbdc2a0af	-0.09503304
178	0xbe2be178	-0.16785228
179	0xbd5a8030	-0.053344905
180	0xbe83164d	-0.25602952
181	0xbf126e38	-0.5719943
182	0xbef30825	-0.4746715
183	0xbeed6898	-0.4636886
184	0xbeac173a	-0.3361147
185	0xbe4d4a24	-0.20047814
186	0xbea3b052	-0.3197046
187	0xbeec73b7	-0.46182033
188	0xbcf8c9ba	-0.030369628
189	0xbe146b45	-0.14494045
190	0xbe6a07a4	-0.22854477
191	0xbe9fd827	-0.312196
192	0xbea8ed8c	-0.32993734
193	0xbedc0f65	-0.42980495
194	0xbf11963b	-0.5686986
195	0xbe6fcb7d	-0.23417468
196	0xbe4a4fa0	-0.19756937
197	0xbe55d5c3	-0.20882325
198	0xbe1954cb	-0.14973752
199	0xbed9ed6d	-0.42563954

lstm.bias_hh_l0 f4 [200]
0	0xbec5c016	-0.38623112
1	0xbf112693	-0.56699485
2	0xbddf1ecb	-0.10894545
3	0xbe8e3e19	-0.27781752
4	0xbe659455	-0.22419865
5	0xbdfd3c34	-0.123649985
6	0xbecff8b3	-0.4061943
7	0xbf071b26	-0.527758
8	0xbeb16abb	-0.3465174
9	0xbef003cd	-0.468779
10	0xbea4a78a	-0.32159072
11	0xbeb84809	-0.35992458
12	0xbeaf7338	-0.34267592
13	0xbef85448	-0.48501801
14	0xbed0e642	-0.40800673
15	0xbe954bd1	-0.29159406
16	0xbe79cdef	-0.24394964
17	0xbd66a860	-0.05631292
18	0xbed5b468	-0.41739202
19	0xbeba3bf1	-0.36373857
20	0xbf017759	-0.50572735
21	0xbed003cf	-0.40627906
22	0xbe40ec6e	-0.18840191
23	0xbe93ec04	-0.28891003
24	0xbea8072e	-0.32817978
25	0xbec1599f	-0.37763688
26	0xbef71cee	-0.4826426
27	0xbe88b911	-0.26703694
28	0xbead9328	-0.33901334
29	0xbe1a43f5	-0.15064986
30	0xbdf12cee	-0.11776148
31	0xbeb8060e	-0.3594212
32	0xbebcdedf	-0.36888787
33	0xbf2424e4	-0.6411879
34	0xbef0cd28	-0.47031522
35	0xbe30c9f2	-0.17264536
36	0xbe8653bb	-0.26235756
37	0xbee6f26a	-0.45106822
38	0xbe5f424e	-0.21802637
39	0xbe8f783e	-0.28021425
40	0xbe741296	-0.23835215
41	0xbeaf8c5d	-0.34286776
42	0xbe7eb5f2	-0.24874094
43	0xbeb66f8a	-0.35631973
44	0xbf0bcad9	-0.54606396
45	0xbe9bbce2	-0.30417544
46	0xbdb51d0a	-0.088434294
47	0xbd86b3ec	-0.06577286
48	0xbeb0cdc9	-0.34532002
49	0xbea6091e	-0.3242883
50	0xbeb54f22	-0.35411936
51	0xbed36e4a	-0.4129508
52	0xbb49b1ad	-0.003077607
53	0xbe70ccb6	-0.23515591
54	0xbe868817	-0.26275703
55	0xbe5ce68b	-0.2157232
56	0xbdf82f42	-0.12118389
57	0xbed5f363	-0.41787252
58	0xbef7a9a2	-0.48371607
59	0xbef48f7c	-0.4776572
60	0xbea60840	-0.3242817
61	0xbe77e423	-0.24208121
62	0xbe1d04d1	-0.15333869
63	0xbec2963e	-0.3800525
64	0xbec615ea	-0.38688594
65	0xbde28f9e	-0.11062549
66	0xbdf6e661	-0.1205566
67	0xbdaec22c	-0.08533129
68	0xbe911915	-0.2833945
69	0xbe8d8bb9	-0.27645662
70	0xbeb48a64	-0.35261834
71	0xbde8346c	-0.11338124
72	0xbd47a592	-0.048741885
73	0xbe2a60f5	-0.16638549
74	0xbeb1b599	-0.3470886
75	0xbe2eef32	-0.17083433
76	0xbeefa5f0	-0.46806288
77	0xbe7af509	-0.24507536
78	0xbe20687f	-0.15664862
79	0xbe02ee24	-0.12786156
80	0xbe142200	-0.14466095
81	0xbed06a8e	-0.40706295
82	0xbecb1660	-0.39665508
83	0xbf08f04c	-0.53491664
84	0xbea77a42	-0.32710463
85	0xbe8574a4	-0.26065552
86	0xbe8b55fa	-0.27214032
87	0xbe7df836	-0.24801716
88	0xbe7669fb	-0.24063866
89	0xbe280a28	-0.16410124
90	0xbe9e8fed	-0.30969182
91	0xbe2d5df4	-0.16930372
92	0xbe87a6f1	-0.26494554
93	0xbebc811d	-0.36817256
94	0xbe91a291	-0.2844434
95	0xbe73f1c0	-0.23822689
96	0x3e422af2	0.18961695
97	0xbdfd4e61	-0.12368465
98	0xbe8859bd	-0.26630965
99	0xbe7326d5	-0.23745282
100	0xbd1bab5b	-0.038005214
101	0xbc92a8b5	-0.017902711
102	0xbde366e6	-0.11103611
103	0x3c8f1e54	0.017470516
104	0x3d69e5a0	0.057103753
105	0x3d4621eb	0.04837219
106	0x3d853efa	0.065061525
107	0xbdcbbe9c	-0.09948465
108	0xbd914f61	-0.070952184
109	0x3bee9173	0.0072805225
110	0x39893676	0.00026171253
111	0x3debb692	0.11509432
112	0x3dbe43c9	0.09290273
113	0xbe0b3439	-0.1359414
114	0xbd82bf5e	-0.06384157
115	0x3d44147f	0.04787111
116	0xbdee198c	-0.116259664
117	0xbbdcd0f4	-0.0067387763
118	0xbd843bb3	-0.06456699
119	0xbd8b67c7	-0.06806903
120	0xbd875cf0	-0.06609523
121	0x3c4afd0f	0.012389435
122	0xbcde8578	-0.027163252
123	0x3c95ebdb	0.018300941
124	0x3d1e557e	0.03865575
125	0xbc402491	-0.011727468
126	0x3d3ebc42	0.046566255
127	0xbd8c1007	-0.068389945
128	0xbd862f99	-0.06552047
129	0x3d77e8e5	0.06052484
130	0xbca8108a	-0.020515699
131	0x3cbdf71c	0.02318912
132	0xbce2773d	-0.027644748
133	0x3cb847ff	0.022495268
134	0x3dcfea7d	0.10152147
135	0x3c95dd15	0.018293897
136	0xbd850c6d	-0.06496511
137	0xbdd3bf28	-0.103391945
138	0x3dd3d22a	0.1034282
139	0xbd3d09f4	-0.04615207
140	0x3b857448	0.0040726997
141	0x3d5f83ee	0.054569177
142	0x3c2566c8	0.010095306
143	0x3ca30a0e	0.019902255
144	0xbcb2ef2e	-0.021842565
145	0xbcdcf663	-0.026972955
146	0x3d47a68a	0.04874281
147	0x3db6fee7	0.089353375
148	0x3d1e1034	0.03858967
149	0xbddbc00a	-0.10729988
150	0xbecc1820	-0.39862156
151	0xbeff92bd	-0.4991664
152	0xbea0bb1a	-0.31392747
153	0xbe349361	-0.17634346
154	0xbea1f1a4	-0.3162967
155	0xbe972ff4	-0.29528773
156	0xbee23594	-0.44181502
157	0xbf01eab1	-0.50748736
158	0xbec27989	-0.3798335
159	0xbed7aa25	-0.42121997
160	0xbedc3597	-0.43009636
161	0xbea911e0	-0.3302145
162	0xbebf241f	-0.37332246
163	0xbef35d26	-0.47532004
164	0xbed6afa8	-0.4193089
165	0xbe9cb89c	-0.30609596
166	0xbe85ab25	-0.26107135
167	0xbe6f6d4f	-0.23381542
168	0xbe434751	-0.19070174
169	0xbe67de73	-0.22643451
170	0xbf037f39	-0.51366
171	0xbebb1b45	-0.36544243
172	0xbcefc8a2	-0.029270474
173	0xbd729879	-0.05922744
174	0xbe52da48	-0.2059108
175	0xbec2acdd	-0.3802251
176	0xbf0b0c65	-0.5431579
177	0xbe5b0320	-0.21387911
178	0xbe658ac5	-0.22416218
179	0xbe91a9ca	-0.2844985
180	0xbe9786e8	-0.29595113
181	0xbefb86bb	-0.4912623
182	0xbeb28a3a	-0.34871083
183	0xbf08f0d6	-0.53492486
184	0xbeb510ac	-0.35364282
185	0xbe57ceef	-0.21075033
186	0xbe40d0b5	-0.18829615
187	0xbf067bb7	-0.52532524
188	0xbdaf1dca	-0.08550604
189	0xbde7f48f	-0.11325943
190	0xbe2677d9	-0.16256656
191	0xbe89eb9e	-0.26937574
192	0xbe8cd91e	-0.27509397
193	0xbede94bc	-0.4347285
194	0xbf1b2a6f	-0.60611624
195	0xbe9fad82	-0.31187063
196	0xbd3783d1	-0.044803444
197	0xbe91c0be	-0.28467363
198	0xbe2c6b65	-0.16837843
199	0xbee725a2	-0.451459

lstm.weight_ih_l1 f4 [200, 50]
0	0x3f2f927d	0.685829
1	0xbbce8404	-0.0063023586
2	0x3d073059	0.033005092
3	0xbeb917c7	-0.36150953
4	0xbe63e7df	-0.2225642
5	0xbdc63816	-0.09678666
6	0xbe709772	-0.23495272
7	0x3e8b057f	0.2715263
8	0xbdc19719	-0.09452648
9	0xbe6067fd	-0.21914668
10	0xbe86f7d9	-0.26360968
11	0xbee928f6	-0.45539063
12	0xbd739ca0	-0.05947554
13	0x3ea97833	0.33099517
14	0xbe2f00db	-0.1709017
15	0xbe8e767a	-0.27824765
16	0xbf231376	-0.6370157
17	0x3e590121	0.21191837
18	0xbec06851	-0.37579587
19	0x3e44cefe	0.19219586
20	0x3ec6203a	0.38696462
21	0xbdc9f01e	-0.09860252
22	0xbf142fc2	-0.5788537
23	0x3d1a4d10	0.03767115
24	0xbe4328d8	-0.1905855
25	0x3f14c105	0.58107024
26	0xbe60a509	-0.21937956
27	0xbe8ce2b8	-0.27516723
28	0xbe051f5b	-0.13000242
29	0xbe50c2bc	-0.20386785
30	0x3e9b7acb	0.3036712
31	0x3e010f2a	0.12603441
32	0xbe56aa01	-0.20963289
33	0xbd3bdc4a	-0.04586438
34	0xbed63b9c	-0.41842353
35	0x3dda414c	0.10656986
36	0xbe6ef013	-0.23333769
37	0x3e1480f1	0.14502312
38	0x3d3301e9	0.043702994
39	0x3ecd5f55	0.40111795
40	0x3d99f1f8	0.07516855
41	0xbef20759	-0.4727123
42	0xbf2176fb	-0.63072175
43	0xbdf51ab9	-0.119679876
44	0xbdbeaa06	-0.09309773
45	0x3d6465db	0.0557612
46	0xbeeb6f62	-0.45983416
47	0xbe594211	-0.21216609
48	0xbe3b7465	-0.1830612
49	0x3de52e51	0.11190475
50	0xba498f1d	-0.0007688867
51	0xbd8f9784	-0.07011321
52	0x3d84b233	0.06479301
53	0x3c6afc37	0.014342359
54	0x3e0e94bf	0.1392393
55	0x3dd6b97e	0.104845986
56	0x3daf5b8d	0.08562384
57	0xbe2f44fb	-0.17116158
58	0xbd7fdcc6	-0.062466405
59	0xbc557f04	-0.013030771
60	0x3de2a7e4	0.11067179
61	0xbd65635e	-0.056002967
62	0x3d7e0afb	0.06202219
63	0xbd665240	-0.056230783
64	0x3e00d376	0.12580666
65	0xbaf6828a	-0.0018807214
66	0xbe155577	-0.14583384
67	0x3d6cb1ce	0.057786755
68	0x3d6ee052	0.058319397
69	0xbd879c7b	-0.06621643
70	0x3db76a24	0.089557916
71	0x3d87c280	0.06628895
72	0xbe0e90a0	-0.13922358
73	0xbd6045d7	-0.054754104
74	0xbc6ba580	-0.01438272
75	0x3da5279f	0.08064198
76	0xbe07c9b3	-0.13260536
77	0xbe17ac74	-0.1481188
78	0xbe3063df	-0.17225598
79	0x3d27a166	0.040925406
80	0x3dab66d9	0.08369226
81	0xbe044ccb	-0.12919919
82	0xbc765b35	-0.015036394
83	0x3dd2960c	0.102825254
84	0xbdc054cc	-0.09391174
85	0x3e08adcc	0.13347548
86	0xbd0983c0	-0.033572912
87	0xbdafbc35	-0.085808195
88	0xbcabb216	-0.020958941
89	0xbd6a41ac	-0.057191536
90	0x3d151264	0.03639449
91	0x3ccdf1f3	0.025139784
92	0xbdcff8bd	-0.10154865
93	0xbca1fdfa	-0.019774426
94	0x3d277ae9	0.0408887
95	0x3d8bb7ea	0.06822188
96	0x3d0e769b	0.03478108
97	0xbb88af61	-0.0041712974
98	0xbe0e9549	-0.13924135
99	0xbdc72d6f	-0.09725463
100	0x3d9ac6a4	0.07557419
101	0xbd05b0c3	-0.032639276
102	0xbdc96df6	-0.098354265
103	0x3e28b8c2	0.1647673
104	0x3e05b92f	0.13058923
105	0xbdf1dc6d	-0.11809621
106	0xbdcd3145	-0.10019163
107	0xbd84aa3c	-0.06477782
108	0xbcec2e32	-0.028830621
109	0x3e536cc5	0.20646961
110	0xba924b44	-0.0011161347
111	0x3d35b373	0.04436059
112	0x3d84c54f	0.06482946
113	0x3e38bcae	0.18040726
114	0x3e06c03d	0.1315927
115	0xbd808368	-0.06275064
116	0xbdca8d53	-0.09890237
117	0xbe0f3168	-0.1398369
118	0xbdd698e3	-0.104783796
119	0x3d191b96	0.037379824
120	0xbda69152	-0.081331864
121	0xbe0cfc96	-0.13768229
122	0x3d8df8de	0.06932233
123	0x3d909aee	0.070608005
124	0xbe364a2c	-0.17801732
125	0xbd885b4a	-0.06658037
126	0xbe229d67	-0.15880357
127	0xbd5e276f	-0.054236826
128	0xbd0d5d9d	-0.034513105
129	0x3cc5ac0f	0.024129895
130	0xbda41b32	-0.080129996
131	0x3ccad27e	0.024758574
132	0x3d5b1c06	0.053493522
133	0x3e394097	0.18091045
134	0xbd484223	-0.048891198
135	0x3d8cfb25	0.068838395
136	0xbc06a7be	-0.008218704
137	0x3d5f4beb	0.05451576
138	0xbda439ba	-0.08018823
139	0xbd82e517	-0.06391352
140	0x3d2425e3	0.040075194
141	0x3e03d2de	0.12873408
142	0xbd22221b	-0.039583307
143	0x3d5f1a8b	0.054468673
144	0xbc9477f5	-0.018123606
145	0xbd212eaa	-0.039351143
146	0x3db88b2c	0.0901092
147	0x3d03bd81	0.032163147
148	0xbcad2fd4	-0.02114097
149	0x3d45b73b	0.048270445
150	0x3e7c2edf	0.24627255
151	0x3cc75aae	0.024335232
152	0xbde6ab60	-0.11263156
153	0xbebb7820	-0.36615086
154	0xbe8e4f85	-0.27795044
155	0xbcceb39a	-0.025232125
156	0x3cdcd1c9	0.026955502
157	0x3cd1b79e	0.02560025
158	0x3ed88054	0.42285407
159	0xbea0bb7f	-0.31393048
160	0xbeaa8030	-0.33300924
161	0xbe80ddf6	-0.25169343
162	0xbdbb8317	-0.09155863
163	0x3e6d3760	0.23165655
164	0x3de711ac	0.112826675
165	0xbeac86b3	-0.33696517
166	0xbec69bc5	-0.38790718
167	0x3ec9efe5	0.39440838
168	0xbd90a83b	-0.070633374
169	0x3e173846	0.1476756
170	0xbc71b9c5	-0.014753764
171	0xbdf18cc8	-0.1179443
172	0xbeb85dd0	-0.36009073
173	0x3e45a0bb	0.19299595
174	0x3caaaf74	0.020835616
175	0x3e8bd4fd	0.27310935
176	0xbdff7a19	-0.1247446
177	0x3bac7d59	0.005263966
178	0xbe82239a	-0.25417787
179	0xbec363a8	-0.3816197
180	0x3ee350a3	0.44397458
181	0x3e741e0e	0.2383959
182	0x3d7594f3	0.059956502
183	0xbee1ef91	-0.44128087
184	0xbd81c43f	-0.06336259
185	0x3e18ab9c	0.14909214
186	0xbed332f8	-0.41249824
187	0x3e901584	0.28141415
188	0x3db8e6e5	0.09028415
189	0x3e980aba	0.29695684
190	0x3d87cd52	0.066309586
191	0xbe3fa63e	-0.1871576
192	0xbe8a09d6	-0.2696063
193	0xbda32061	-0.0796516
194	0xbc2325a5	-0.009957706
195	0x3cb63794	0.022243299
196	0xbee44af4	-0.44588435
197	0xbf013584	-0.50472283
198	0x3e79c137	0.24390112
199	0x3c149de0	0.009070843
200	0x3e49a0bc	0.19690222
201	0xbdef79b3	-0.11693134
202	0xbd311c2a	-0.04323975
203	0xbd01a192	-0.031648226
204	0x3ce62ba2	0.028096978
205	0xbd6dd0f2	-0.058060594
206	0xbe3d15ad	-0.184653
207	0xbc9d9b91	-0.019239219
208	0x3e0d768a	0.1381475
209	0xbd8e4ebd	-0.06948612
210	0xbdbb41c4	-0.09143403
211	0xbdd3a048	-0.103333056
212	0x3c142b76	0.009043565
213	0x3e5f9eba	0.21837893
214	0x3e076336	0.1322144
215	0x3d5312ec	0.051531717
216	0xbe7c4830	-0.24636912
217	0xbcec20be	-0.028824206
218	0xbe65ab1e	-0.22428557
219	0xbc549d8a	-0.012977013
220	0xba552f82	-0.00081323844
221	0x3cf1b305	0.029504308
222	0xbdcfce69	-0.101467915
223	0x3e0e184f	0.1387646
224	0xbd33b39a	-0.043872453
225	0x3e68652f	0.22694848
226	0xbd670434	-0.056400493
227	0x3cfc02b3	0.030763006
228	0xbd09b24e	-0.03361731
229	0xbe73ba87	-0.23801623
230	0x3d9ec750	0.077528596
231	0xbdf20d7f	-0.118189804
232	0xbe21e9cd	-0.15811844
233	0xbd63508d	-0.05549674
234	0xbcdf02e9	-0.027223067
235	0x3d768600	0.060186386
236	0xbe09fabb	-0.13474552
237	0x3daa98eb	0.08329948
238	0x3d32dbf1	0.043666784
239	0xbc2a1d9f	-0.010383039
240	0x3c54229e	0.0129477065
241	0xbe442983	-0.1915646
242	0xbe8c9f70	-0.2746539
243	0xbb70a475	-0.0036719118
244	0x3c5105e0	0.012757748
245	0x3dca170b	0.09867676
246	0xbe488e6a	-0.19585577
247	0x39b28974	0.00034053216
248	0xbae42520	-0.0017406084
249	0xbd9d8c88	-0.0769282
250	0xbdd465ce	-0.1037098
251	0x3af58467	0.0018731476
252	0xbe92a151	-0.286387
253	0x3e2d159e	0.16902778
254	0x3d79ac02	0.060955055
255	0xbc744336	-0.014908602

lstm.weight_hh_l1 f4 [200, 50]
0	0xbf2409bf	-0.6407737
1	0x3dd83fea	0.10559066
2	0x3df72c4c	0.12068996
3	0xbdda11ed	-0.1064795
4	0x3cabc4d2	0.020967875
5	0x3e93fc7d	0.2890357
6	0xbe3ca882	-0.18423656
7	0x3dea3595	0.11436001
8	0x3e46bb72	0.19407442
9	0x3ec6c3cb	0.38821253
10	0xbe328128	-0.17432082
11	0xbda0b58a	-0.07847126
12	0xbe0c7eef	-0.13720296
13	0x3e885b82	0.26632315
14	0x3de3bfb9	0.111205526
15	0x3eb5b2bc	0.35487926
16	0x3eb4ecdb	0.35336956
17	0x3d8e91db	0.069614135
18	0xbbf6e1d2	-0.007534244
19	0x3df23804	0.118270904
20	0x3e5cf7fa	0.2157897
21	0x3e514135	0.20435031
22	0x3c1beb0d	0.00951649
23	0x3e80d205	0.25160232
24	0xbe055bec	-0.13023347
25	0xbe07faec	-0.13279313
26	0xbd84eb1f	-0.06490158
27	0x3eb07261	0.34462264
28	0x3d559db6	0.052152358
29	0x3d5412b2	0.05177564
30	0x3cf0a84f	0.02937713
31	0x3e91a7e2	0.28448397
32	0xbd1a4bae	-0.03766983
33	0x3dc1cfb1	0.09463442
34	0x3df050b4	0.11734143
35	0xbdbb8c73	-0.09157648
36	0xbe9b4251	-0.30324033
37	0xbe150d49	-0.14555849
38	0x3c709c81	0.014685751
39	0x3d094bae	0.03351944
40	0x3d8196de	0.06327604
41	0x3e581e29	0.21105255
42	0xbd4b704f	-0.049667653
43	0x3cd90811	0.026493104
44	0xbf1d736e	-0.61504257
45	0xbe70135f	-0.2344489
46	0xbe289dad	-0.16466399
47	0xbe599866	-0.21249542
48	0x3e93650d	0.28788033
49	0xbe3e51df	-0.18585919
50	0xbdbda9cc	-0.09260902
51	0xbe105cae	-0.14097854
52	0x3daf0a08	0.08546835
53	0xbd698fba	-0.057021834
54	0xbe23f839	-0.16012658
55	0x3d9b9433	0.07596626
56	0xbdd18fd7	-0.102325134
57	0x3deb48c4	0.11488488
58	0xbd739ff9	-0.059478734
59	0xbe5ec44b	-0.21754567
60	0xbe26427d	-0.16236301
61	0x3ce7cae2	0.028294984
62	0x3c7c7084	0.015407685
63	0xbe8b2c44	-0.2718221
64	0xbe8246c2	-0.2544461
65	0xb9aad0b2	-0.00032580417
66	0x3e38698b	0.18009011
67	0x3c06b61f	0.008222132
68	0x3de5403f	0.111938946
69	0x3e5874c8	0.21138299
70	0xbe5cadfc	-0.21550745
71	0x3defd0d0	0.1170975
72	0x3db21351	0.086950906
73	0x3e874ed3	0.26427326
74	0xbd6af1ec	-0.05735962
75	0xbe4ddba2	-0.20103315
76	0x3d41f02d	0.04734819
77	0x3e32705a	0.17425671
78	0xbd940e54	-0.072292954
79	0x3dffd740	0.124922276
80	0x3dbfc711	0.09364141
81	0x3e0a3ebc	0.13500494
82	0xbe2c6850	-0.16836667
83	0x3e1fe5b0	0.15614963
84	0xbd3ff47c	-0.046864018
85	0xbc42205f	-0.011848538
86	0xbdc457de	-0.09587072
87	0xbd1229f5	-0.035684545
88	0x3db5dbb5	0.088797964
89	0xbe28c19f	-0.1648011
90	0xbe3a5dcc	-0.18199843
91	0x3e4326c9	0.19057764
92	0x3cc5ba9c	0.024136834
93	0xbcde95ac	-0.027170978
94	0xbe5cb962	-0.21555093
95	0x3e62160f	0.22078727
96	0xbe404024	-0.18774468
97	0xbdc1989f	-0.09452938
98	0xbc4d17fa	-0.0125179235
99	0xbdf7b2b0	-0.12094629
100	0xbe00c6c5	-0.12575825
101	0x3cb2866a	0.02179261
102	0x3dde48f8	0.108537614
103	0x3d956692	0.07294954
104	0x3d1190fe	0.035538666
105	0x3e7eecff	0.24895094
106	0xbd2519ba	-0.040307738
107	0xbc4b87ed	-0.012422544
108	0x3d850c1e	0.06496452
109	0xbd46ac67	-0.04850426
110	0xbd67a246	-0.05655124
111	0x3d160e99	0.036635015
112	0x3d6f8bd4	0.05848296
113	0x3c6d640d	0.014489186
114	0x3d205568	0.03914395
115	0x3adf11c2	0.0017018842
116	0x3e312ceb	0.17302291
117	0x3e0badfb	0.13640587
118	0x3e5e21c0	0.21692562
119	0x3e801c64	0.2502166
120	0xbe09bcb3	-0.1345089
121	0x3c384aa4	0.011248264
122	0xbd2b36d6	-0.041800343
123	0x3e63e69a	0.22255936
124	0xbd99ea32	-0.07515372
125	0xbcba8cee	-0.022772279
126	0x3e437c44	0.19090372
127	0x3dadb2db	0.084813796
128	0xbe628a43	-0.22123055
129	0x3de1c30e	0.11023532
130	0xbc934eba	-0.017981876
131	0x3e01d41d	0.12678571
132	0x3d66e0c3	0.056366693
133	0x3e4a1c16	0.19737276
134	0x3d99112e	0.0747398
135	0x3d9b486d	0.075821735
136	0xbe330c8a	-0.17485252
137	0x3dc149e9	0.09437925
138	0x3e399630	0.18123698
139	0xbdbdb17d	-0.09262369
140	0x3d91469f	0.07093548
141	0x3e8d2349	0.27565983
142	0x3d8f8215	0.07007233
143	0x3db50109	0.08838088
144	0x3c490a6d	0.012270552
145	0xbda35bed	-0.07976518
146	0x3dace30c	0.08441743
147	0xbe1a0213	-0.15039854
148	0x3dd923cb	0.1060253
149	0xbe10c463	-0.14137416
150	0xbe9e92d4	-0.30971396
151	0xbc902268	-0.017594531
152	0x3d2b3e0a	0.041807212
153	0x3e2ff44c	0.17183036
154	0xbe0a0951	-0.13480116
155	0x3eafbbc4	0.3432294
156	0xbd087920	-0.03331864
157	0x3e8e8d60	0.27842236
158	0x3e974b67	0.29549715
159	0x3e427a11	0.18991877
160	0xbebd8ccc	-0.37021482
161	0xbed632fb	-0.4183577
162	0x3e28d232	0.16486433
163	0x3d6779bb	0.056512576
164	0xbe06dc3e	-0.13169953
165	0xbda71da3	-0.0815995
166	0x3de95111	0.11392415
167	0x3d017645	0.03160693
168	0xbe36cf5f	-0.17852543
169	0x3ee42c2c	0.4456495
170	0xbdff0f25	-0.124540605
171	0x3ee31e97	0.44359276
172	0xbe87f011	-0.26550344
173	0x3e93ce20	0.28868198
174	0xbf172377	-0.5903849
175	0xbed4cc2f	-0.4156203
176	0x3da1abe5	0.078941144
177	0x3efc4f39	0.49279192
178	0xbe563ff9	-0.20922841
179	0x3f049563	0.51790446
180	0xbbfc6cb1	-0.0077033867
181	0x3e66dd40	0.22545338
182	0xbf1a0aed	-0.6017292
183	0xbe04d8d9	-0.12973346
184	0x3e3469cf	0.17618488
185	0xbe54b653	-0.20772676
186	0xbe5a6d22	-0.21330693
187	0x3d205471	0.03914303
188	0xbd1cdf22	-0.038298734
189	0x3e89dfaf	0.2692847
190	0xbe75214c	-0.23938483
191	0x3eb66b62	0.35628802
192	0xbecb7abe	-0.39742082
193	0x3e2dc7b5	0.16970713
194	0xbdbc787d	-0.09202669
195	0x3cd74209	0.026276605
196	0xbe05cf4a	-0.13067356
197	0xbebb466e	-0.3657717
198	0x3ec95eef	0.3933024
199	0x3d74ec13	0.05979545
200	0xbe5acd44	-0.21367365
201	0xbe400b48	-0.18754303
202	0x3dcefc2f	0.10106694
203	0xbd91261c	-0.07087347
204	0x3bf1d441	0.007380039
205	0x3e55d7c6	0.20883092
206	0xbd868a26	-0.065693185
207	0x3e42c131	0.19019009
208	0x3d21d52c	0.039509937
209	0x3e6712e6	0.22565803
210	0xbe5e350c	-0.21699923
211	0x3d3947ca	0.04523448
212	0x3e64f8ad	0.22360487
213	0x3e0b8875	0.13626273
214	0xbd50b6e8	-0.050955683
215	0xbdd82da3	-0.105555795
216	0x3e0e2f14	0.13885146
217	0xbcb9a11a	-0.022659827
218	0x3dca943c	0.09891555
219	0xbc628f74	-0.013828147
220	0x3dca275b	0.09870788
221	0x3d216d56	0.03941091
222	0x3d5be50b	0.05368523
223	0x3e4dde79	0.20104398
224	0xbe835fa9	-0.2565892
225	0xbe01bf9c	-0.1267075
226	0x3b8154a9	0.00394686
227	0x3dbcad48	0.09212738
228	0x3bd81dcb	0.0065953485
229	0x3e1e9cd9	0.1548952
230	0x3e0c645c	0.13710159
231	0xbc1d2cf6	-0.009593239
232	0xbe37356a	-0.1789147
233	0xbd9cb9d9	-0.07652635
234	0xbcd3486d	-0.025791371
235	0xbe18407f	-0.14868353
236	0xbd7e9c6c	-0.062160894
237	0x3d9ee339	0.07758183
238	0x3e5009a9	0.20316185
239	0xbd8b9094	-0.068146855
240	0x3de06a80	0.10957813
241	0x3cdc1705	0.026866445
242	0xbe000d0e	-0.1250498
243	0x3e1c1aff	0.15244673
244	0xbda7e7a5	-0.081984796
245	0xbd5dd089	-0.054153953
246	0xbdd555fb	-0.1041679
247	0xbc99f577	-0.018793805
248	0x3de251f8	0.110507905
249	0xbe84f5c6	-0.2596876
250	0xbe3b127c	-0.1826877
251	0xbefcc904	-0.49372113
252	0x3f1a742a	0.603335
253	0x3ea7731d	0.32705012
254	0xbe5f4832	-0.21804884
255	0xbf30680e	-0.68908775

lstm.bias_ih_l1 f4 [200]
0	0xbf169cf6	-0.58833253
1	0x3c099c4a	0.008399079
2	0xb98c1657	-0.00026719525
3	0xbf3ec9e5	-0.74526817
4	0xbde65b9a	-0.1124794
5	0x3e475ec4	0.19469744
6	0xbf395975	-0.72402126
7	0xbde55b6b	-0.11199077
8	0xbf5b4a7b	-0.85660523
9	0x3e7dfbd2	0.24803093
10	0xbf5a639a	-0.8530823
11	0xbf0e9a20	-0.55703926
12	0xbee1f022	-0.4412852
13	0x3e33d56a	0.1756188
14	0x3e4d18cb	0.20028989
15	0xbeeed46d	-0.46646443
16	0xbef17536	-0.47159737
17	0xbf5a021e	-0.8515948
18	0xbf351792	-0.7073909
19	0xbe0959e9	-0.13413204
20	0x3d35b2ed	0.04436009
21	0xbd8d35e6	-0.06895046
22	0xbeab0b09	-0.33406857
23	0xbf21fd87	-0.6327748
24	0xbead6c80	-0.3387184
25	0xbf1fa414	-0.6235974
26	0xbe6670fa	-0.22504035
27	0xbdd354ed	-0.10318933
28	0xbdf9ff79	-0.12206931
29	0xbecfa45c	-0.40555084
30	0xbf12c41f	-0.5733051
31	0xbf2af29a	-0.6677643
32	0xbf083128	-0.53200006
33	0xbf63cfa5	-0.88988715
34	0xbf7a473e	-0.97764957
35	0xbcd10a75	-0.025517682
36	0xbf10fce7	-0.566359
37	0xbf201237	-0.62527794
38	0xbf057cbc	-0.52143455
39	0xbf2b7b45	-0.6698497
40	0xbe02bd24	-0.12767464
41	0xbef06edb	-0.46959576
42	0xbf39d52c	-0.725909
43	0xbeb61b2f	-0.35567614
44	0xbecca0e1	-0.3996649
45	0xbd558b76	-0.052134953
46	0xbd823985	-0.06358627
47	0xbd539cf6	-0.05166336
48	0xbe480298	-0.1953224
49	0xbf0135e6	-0.5047287
50	0xbf133212	-0.57498276
51	0xbed6a8ce	-0.41925663
52	0xbe8ee15b	-0.27906308
53	0xbf0aed6b	-0.5426852
54	0xbea4da74	-0.32197917
55	0xbf47026d	-0.77738076
56	0xbf2c10ab	-0.67212933
57	0xbde853ed	-0.113441326
58	0xbf375f42	-0.71629727
59	0xbf99acaf	-1.2005824
60	0xbf51f351	-0.82011896
61	0xbf026833	-0.50940245
62	0xbef49aa5	-0.47774234
63	0xbf8f51d3	-1.1196846
64	0xbf5a80bf	-0.853527
65	0xbf16234c	-0.5864761
66	0xbf0465a1	-0.51717573
67	0xbf1a5831	-0.6029082
68	0xbf3d665d	-0.7398432
69	0xbc9f1750	-0.019420296
70	0xbf3dcb8e	-0.74138725
71	0xbcc88ac6	-0.024480235
72	0xbe930460	-0.28714275
73	0xbf079524	-0.52961946
74	0xbed59664	-0.417163
75	0xbf2922dd	-0.6606882
76	0xbe96a799	-0.29424742
77	0xbf1f5ec8	-0.62254
78	0xbdc7d42a	-0.09757264
79	0xbec8440d	-0.3911442
80	0xbefd3758	-0.49456286
81	0xbefe059d	-0.49613658
82	0xbeacb637	-0.3373277
83	0xbf34c1fe	-0.7060851
84	0xbf4155e3	-0.7552168
85	0xbf675220	-0.9035969
86	0xbf0a6f31	-0.54075915
87	0xbf0239bd	-0.5086935
88	0xbf1583a7	-0.5840401
89	0xbf10fd1a	-0.566362
90	0xbee563dc	-0.4480275
91	0xbe4d0b8d	-0.20023938
92	0xbefa69b2	-0.48908764
93	0xbe8efdc9	-0.27927998
94	0xbe8b8600	-0.2725067
95	0xbee65728	-0.4498837
96	0xbea7664d	-0.32695237
97	0xbac835d8	-0.0015274836
98	0xbed6d797	-0.41961357
99	0xbef3de49	-0.47630528
100	0x3c9f04d0	0.019411474
101	0x3e12b795	0.14327843
102	0xbddadb5d	-0.106863715
103	0x3ccbad79	0.024862992
104	0xbd7bdd00	-0.06149006
105	0x3ea1ef43	0.31627855
106	0x3cbf8c57	0.023382349
107	0x3cd95812	0.026531253
108	0x3d91507e	0.07095431
109	0x3e8af0ff	0.2713699
110	0x3c49a596	0.012307545
111	0x3c14f807	0.009092337
112	0xbd9e6f44	-0.07736066
113	0x3e89a2fd	0.26882163
114	0x3e05ec9d	0.13078542
115	0x3e11c2f8	0.14234531
116	0xbdc6a63b	-0.09699675
117	0xbd1efe33	-0.038816642
118	0x3d07b4be	0.033131354
119	0x3cf4cfe3	0.029884284
120	0x3e29d7ec	0.16586274
121	0x3d1b032f	0.037844833
122	0x3d234cac	0.039868042
123	0x3d8ba517	0.06818598
124	0xbd3d25a0	-0.04617846
125	0xbca087eb	-0.01959606
126	0xbe1ebb0c	-0.1550104
127	0x3dd9a2e2	0.106267706
128	0xbcc2f2ed	-0.023797477
129	0xbccd9c52	-0.025098953
130	0x3c92c30d	0.017915273
131	0xbdd095af	-0.101848
132	0x3dfdaca2	0.12386443
133	0x3e119ad4	0.14219218
134	0xbe344c3c	-0.17607206
135	0xbe93c33e	-0.28859895
136	0x3d52e84b	0.051491063
137	0xbbd0e83f	-0.006375342
138	0xbdb09dfa	-0.08623882
139	0x3a37d143	0.00070120784
140	0x3e01312d	0.12616415
141	0xbd55520a	-0.05208019
142	0x3d697060	0.056991935
143	0xbe058260	-0.13038015
144	0x3c06a125	0.008217131
145	0xbc779127	-0.015110291
146	0x3dd0e403	0.1019974
147	0x3c7a696d	0.0152839245
148	0xbcb14594	-0.021639623
149	0xbdb312d2	-0.08743824
150	0xbf01bb1e	-0.50676143
151	0xbe1b0146	-0.15137205
152	0xbc643d20	-0.013930589
153	0xbf1ca954	-0.61195874
154	0xbda5ac64	-0.080895215
155	0x3e2aaba2	0.16667035
156	0xbf40d046	-0.753178
157	0xbe8747b8	-0.26421905
158	0xbf630766	-0.88683164
159	0x3e2def9e	0.16985938
160	0xbf6155ca	-0.8802153
161	0xbefc7f99	-0.493161
162	0xbe8f3d92	-0.27976662
163	0x3e1f3125	0.15546091
164	0x3ec163ff	0.37771603
165	0xbe6b901d	-0.23004194
166	0xbe82e783	-0.25567254
167	0xbf4595e2	-0.7718183
168	0xbf5516f8	-0.8323817
169	0xbe660b30	-0.22465205
170	0x3d116d6d	0.035504747
171	0xbe459b5c	-0.19297546
172	0xbe77be84	-0.2419377
173	0xbf2b8d00	-0.67012024
174	0xbecc1080	-0.39856339
175	0xbf2c5838	-0.6732211
176	0xbd073b6b	-0.03301565
177	0x3cc86b3a	0.024465192
178	0xbe4034d8	-0.18770158
179	0xbee1d571	-0.44108155
180	0xbf1dbfd8	-0.61620855
181	0xbf2bd196	-0.6711668
182	0xbebc1dad	-0.3674139
183	0xbf413fb9	-0.7548786
184	0xbf5cbb20	-0.8622303
185	0xbe065a86	-0.1312047
186	0xbf2b7abe	-0.66984165
187	0xbf1bbacc	-0.60831904
188	0xbeffd31f	-0.4996576
189	0xbf26fd03	-0.65229815
190	0xbe0ad6df	-0.1355853
191	0xbea57c31	-0.32321313
192	0xbf1eb062	-0.6198789
193	0xbeb0ad5e	-0.3450727
194	0xbec1d800	-0.37860107
195	0xbe270957	-0.16312157
196	0x3c812730	0.015765756
197	0xbe104f5d	-0.14092775
198	0xbed1f7ba	-0.41009313
199	0xbf19e24a	-0.60110915

lstm.bias_hh_l1 f4 [200]
0	0xbf19d976	-0.60097444
1	0xbd9780a7	-0.07397585
2	0x3c86bcdc	0.016447477
3	0xbf222335	-0.6333497
4	0xbe0c3be9	-0.13694729
5	0x3e8f8963	0.28034505
6	0xbf5cd02c	-0.86255145
7	0xbe2fd959	-0.17172755
8	0xbf498368	-0.78716135
9	0x3e79d112	0.2439616
10	0xbf4f40d5	-0.809583
11	0xbed4b85d	-0.41546908
12	0xbec7642b	-0.3894361
13	0x3df0907d	0.11746309
14	0x3e5460e5	0.20740087
15	0xbee1ad5c	-0.44077575
16	0xbeafd8d6	-0.3434512
17	0xbf224c77	-0.63397926
18	0xbf342905	-0.7037509
19	0xbccbf22e	-0.024895754
20	0x3e597ef0	0.21239829
21	0xbcf65fe7	-0.030075027
22	0xbe6b2649	-0.22963823
23	0xbf21586b	-0.6302554
24	0xbe976bae	-0.2957434
25	0xbf06f835	-0.52722484
26	0xbe521f58	-0.20519769
27	0xbe1b744e	-0.15181085
28	0xbd19f6b7	-0.0375888
29	0xbf14e8af	-0.58167547
30	0xbf10c488	-0.5654988
31	0xbf4e7c48	-0.8065839
32	0xbf00c46b	-0.5029971
33	0xbf3a942b	-0.72882336
34	0xbf46b58f	-0.77620786
35	0x3c592c13	0.013255137
36	0xbf1f596e	-0.62245834
37	0xbf33ac33	-0.7018463
38	0xbeeb8685	-0.46001068
39	0xbf14655b	-0.57967156
40	0x3d05f7a2	0.032706864
41	0xbee58d2b	-0.44834265
42	0xbf1c6b28	-0.6110101
43	0xbeaed2e1	-0.34145263
44	0xbf007d73	-0.5019142
45	0x3da057cc	0.07829246
46	0xbd2b3e10	-0.041807234
47	0xbe2e307b	-0.17010681
48	0xbebb337b	-0.36562714
49	0xbf100c3b	-0.5626866
50	0xbf139f1d	-0.5766466
51	0xbeaf8caa	-0.34287006
52	0xbed53367	-0.4164078
53	0xbefcf252	-0.49403626
54	0xbeb44fd7	-0.35217163
55	0xbf737275	-0.9509652
56	0xbee2c6e8	-0.44292378
57	0xbc586003	-0.013206485
58	0xbf2ba19e	-0.67043483
59	0xbfaf93d6	-1.3716991
60	0xbf2c6c91	-0.6735316
61	0xbefb8958	-0.49128222
62	0xbef6ec4f	-0.48227164
63	0xbf9ef139	-1.2417365
64	0xbf35a3c2	-0.70953
65	0xbf1b4c36	-0.60663164
66	0xbebb34ce	-0.36563724
67	0xbf0be31f	-0.54643434
68	0xbf16fef4	-0.5898278
69	0xbe90e0cf	-0.28296515
70	0xbf60ce68	-0.8781495
71	0xbdef6ca5	-0.11690644
72	0xbe1eb7a6	-0.15499744
73	0xbf0d98e9	-0.5531145
74	0xbe9ad887	-0.30243322
75	0xbef144df	-0.47122857
76	0xbeae4639	-0.3403795
77	0xbedeef48	-0.43541932
78	0xbe016463	-0.1263595
79	0xbe92508d	-0.2857708
80	0xbeaf567c	-0.3424567
81	0xbec5e94a	-0.38654548
82	0xbe9a0ffe	-0.30090326
83	0xbf3649d2	-0.7120639
84	0xbf40d980	-0.7533188
85	0xbf649def	-0.8930349
86	0xbede81e7	-0.43458483
87	0xbf0ccdc2	-0.5500146
88	0xbf18ea0b	-0.5973212
89	0xbf16fe8e	-0.5898217
90	0xbea5dd70	-0.32395506
91	0xbef031aa	-0.4691289
92	0xbf0dedf9	-0.5544124
93	0xbe96aef1	-0.29430345
94	0xbe9c61f5	-0.30543485
95	0xbf20b06d	-0.62769204
96	0xbea56efc	-0.32311237
97	0xbe3fb279	-0.18720426
98	0xbeab5a1e	-0.3346719
99	0xbf087c60	-0.5331478
100	0x3c1c1285	0.0095259
101	0x3ce25408	0.02762796
102	0xbce624a9	-0.028093653
103	0xbd12460a	-0.035711326
104	0x3de45554	0.111490875
105	0x3e8ada88	0.2711985
106	0x3ba336fb	0.0049809194
107	0xbd52318a	-0.051316775
108	0xbe03f599	-0.12886657
109	0x3eb4eea0	0.35338306
110	0xbd7614f0	-0.06007856
111	0x3c09e303	0.00841594
112	0xbd44cc00	-0.048046112
113	0x3e2a1e32	0.16613081
114	0x3e93124b	0.28724894
115	0x3d096809	0.03354648
116	0x3c1827dd	0.009286848
117	0xbd45b1c3	-0.04826523
118	0x3d960f31	0.07327116
119	0xbcfa113c	-0.030525796
120	0x3e69beca	0.22826687
121	0xbd494ed7	-0.049147453
122	0xbd091ffb	-0.033477765
123	0xbdb061c9	-0.08612401
124	0x3d925e26	0.07146864
125	0x3d329533	0.04359932
126	0xbd85952d	-0.06522594
127	0x3e0c3bf3	0.13694744
128	0x3cec4a51	0.02884403
129	0x3c76e977	0.015070311
130	0xbbe004d6	-0.006836514
131	0x3d572002	0.05252076
132	0xbd8f3ad0	-0.069936395
133	0xbdf0a3b1	-0.11749972
134	0x3c2ead57	0.010661445
135	0xbe2de10b	-0.16980378
136	0xbb1a5164	-0.0023547048
137	0x3ce815d5	0.028330723
138	0x3de0f1b6	0.10983603
139	0xbd016737	-0.031592574
140	0x3d4d967a	0.050192334
141	0x3d2eb0c4	0.042649046
142	0x3d46a319	0.048495386
143	0x3dae93f8	0.085243165
144	0x3d07948a	0.033100642
145	0xbe64bbd4	-0.22337276
146	0x3c96bb2a	0.018399794
147	0xbc4b5854	-0.012411196
148	0x3da64059	0.08117742
149	0x3d8edadb	0.06975337
150	0xbf3d05f1	-0.7383719
151	0x3cb03432	0.021509264
152	0x3e37fcfb	0.17967598
153	0xbf368749	-0.7130018
154	0xbe742978	-0.23843944
155	0x3e23dde5	0.16002615
156	0xbf27df4e	-0.6557511
157	0xbe803fdf	-0.2504873
158	0xbf606d7b	-0.87667054
159	0x3e2bfc85	0.16795547
160	0xbf6b5e1a	-0.9194046
161	0xbf14dfed	-0.58154184
162	0xbe6a8160	-0.22900915
163	0x3e56ed05	0.20988853
164	0x3e2eb3f8	0.1706084
165	0xbedabac8	-0.42720628
166	0xbf05e90a	-0.52308714
167	0xbf42d906	-0.761124
168	0xbf394842	-0.7237588
169	0xbe94ce52	-0.2906366
170	0xbd34c61a	-0.044134237
171	0xbd8d747d	-0.06906984
172	0xbea82fd0	-0.32848978
173	0xbf306b23	-0.6891348
174	0xbe9b1a94	-0.30293715
175	0xbf1433c0	-0.57891464
176	0xbce718d9	-0.02821009
177	0xbdf942ab	-0.12170919
178	0xbd8da90b	-0.06917008
179	0xbf278cd5	-0.6544927
180	0xbf05d242	-0.5227395
181	0xbf35262e	-0.7076138
182	0xbee181b1	-0.4404426
183	0xbf76994e	-0.96327674
184	0xbf805404	-1.002564
185	0x3dd6c51a	0.10486813
186	0xbf05d786	-0.5228199
187	0xbf0ea5ec	-0.55721927
188	0xbf091c44	-0.53558755
189	0xbf36d5e2	-0.7142011
190	0x3c7834f9	0.015149348
191	0xbeafc551	-0.34330228
192	0xbf2ca6bc	-0.67441916
193	0xbed3a08a	-0.4133342
194	0xbed9d37a	-0.42544156
195	0x3d38aeb9	0.045088504
196	0xbdbc4319	-0.09192485
197	0xbe2df5e3	-0.1698833
198	0xbe3c29c0	-0.18375301
199	0xbf0e8e89	-0.5568624

linear.weight f4 [1, 50]
0	0xba5eb1ad	-0.00084951037
1	0x3d077913	0.03307445
2	0xbcbe656c	-0.023241721
3	0xbcc4bdba	-0.02401625
4	0x3c305251	0.010761813
5	0x3e02d3c8	0.127761
6	0xbb632967	-0.003466213
7	0x3ca63958	0.020291016
8	0x3c20bb69	0.009810307
9	0x3e42a405	0.19007881
10	0xbda72be0	-0.08162665
11	0x3ce3f47b	0.027826538
12	0xbcc6e1db	-0.024277618
13	0x3dcdef15	0.10055367
14	0x3d9ffe13	0.07812133
15	0x3db6ee79	0.08932204
16	0xbc8e438d	-0.017366195
17	0x3c9c67b7	0.019092424
18	0x3cffea33	0.031239605
19	0x3bb41de5	0.005496728
20	0x3d448006	0.047973655
21	0x3c9a3027	0.018821789
22	0xbd5fee41	-0.054670576
23	0x3d14862a	0.03626076
24	0xbc6cb675	-0.014447798
25	0xbc206a5c	-0.009790983
26	0xbd28d60b	-0.041219752
27	0x3dcae935	0.09907762
28	0x3bbbf9fa	0.0057365866
29	0x3c30010b	0.010742436
30	0xbc90bb15	-0.017667333
31	0x3b5f02c3	0.0034028746
32	0x3cad5d99	0.021162795
33	0xba64ee91	-0.0008733059
34	0xbd4a9d66	-0.049466513
35	0xbcccb1b6	-0.024987083
36	0xbb956d91	-0.0045601805
37	0xbc9a0dbd	-0.018805379
38	0x3ce39230	0.027779669
39	0xbd04fc3e	-0.03246712
40	0x3bc5e467	0.0060391906
41	0x3bb63262	0.0055602053
42	0x3d158d28	0.03651157
43	0xbcdc7479	-0.026911007
44	0x3ca4277c	0.020038359
45	0xbbabc9b3	-0.0052425503
46	0x3ad86c02	0.0016511681
47	0xbc26a5ff	-0.0101714125
48	0xbd294ef2	-0.041335054
49	0xbd3ce3ea	-0.046115793

con1d.weight f4 [1, 5, 1]
0	0x3e79bb5b	0.24387877
1	0xbea46f87	-0.3211634
2	0x3e7a92dc	0.24470085
3	0x3e85cb06	0.26131457
4	0xbec5fca6	-0.38669318
